state_dict_model.pt (torch, 250887 bytes, 10 tensors)

conv1.weight f4 [6, 3, 5, 5]
000000 b0 62 9d 3c 24 95 49 bd 00 70 80 b8 d8 2e 53 bc
       0.019212097 -0.049214497 -6.124377e-05 -0.012889586
000010 d8 b3 d8 3d 92 86 56 bd 6c ea 4a bd f4 23 94 bd
       0.105811775 -0.05237443 -0.04953997 -0.0723342
000020 e0 ab 54 3c e6 97 e1 3d 74 b0 9f bd 18 a4 05 3d
       0.012980431 0.110153005 -0.07797328 0.032627195
000030 73 88 91 bd 48 57 0a 3d 80 46 cf 3c 3e 70 9a 3d
       -0.07106104 0.033774644 0.025302172 0.0754094
000040 50 59 dc bc 98 1a db bc fc 95 0d 3d ff ce 90 bd
       -0.026898056 -0.02674608 0.034566864 -0.07070731
000050 74 05 8d bd 20 60 50 3c b8 45 1a 3d 54 bd ea bc
       -0.06885806 0.0127182305 0.037664145 -0.028654732
000060 e0 15 ce 3d 58 59 a9 3d a0 c2 c4 3c 54 8f 0a bd
       0.10062766 0.08268994 0.024018586 -0.033828095
000070 c8 ef 91 3c 50 2a a9 3d a0 79 38 3b fe 96 11 bd
       0.017814532 0.082600236 0.0028148666 -0.035544388
000080 98 0e 0c bc 84 5d c3 bd 08 23 9f 3d 70 7c cd bc
       -0.008548401 -0.09539321 0.077703536 -0.02508375
000090 44 0e e6 bc 08 0c 59 bc 2f 62 d0 bd f2 c8 d9 bd
       -0.028082974 -0.013247497 -0.10174977 -0.106340304
0000a0 27 58 6d bd e0 cc 26 3c 53 6a 78 bd de 80 11 bd
       -0.057945397 0.010180682 -0.060648274 -0.035523288
0000b0 e0 c0 8a bb 98 11 2e 3d 2e a6 d2 bd a5 0b ab bd
       -0.0042344183 0.042497247 -0.102856025 -0.083518304
0000c0 00 5a 11 39 a0 e8 71 3d e6 78 a7 bd e8 5a ce 3d
       0.00013861805 0.05905974 -0.081773564 0.10075933
0000d0 34 38 e7 bc 70 1e c6 3c 4c 6c 61 3d 74 e4 22 bd
       -0.028225042 0.024184436 0.05503492 -0.03976865
0000e0 f0 e0 86 3c 35 8c c3 bd c8 c3 fb 3c 21 37 d2 bd
       0.01646468 -0.09548227 0.030733004 -0.10264421
0000f0 14 1a b0 3d 77 d7 da bd 68 29 b9 3c 78 ec 38 bd
       0.08598724 -0.10685628 0.022602752 -0.04514739
000100 c0 89 a0 bc 28 b0 31 bd 2c e8 c6 3d ee ad a7 3d
       -0.019596934 -0.043380886 0.09712252 0.08187471
000110 24 0d 73 3d 08 58 15 3c e0 48 b9 bb 8e 35 01 bd
       0.059338704 0.009115227 -0.0056544393 -0.031545214
000120 a0 3a b4 bc 2c 62 01 3d 42 a7 ea 3d 62 8a 85 bd
       -0.02200061 0.031587765 0.11457683 -0.06520535
000130 a6 40 9a 3d 28 5e 78 bc f8 5f 20 bd 08 60 c5 3d
       0.07531862 -0.015159167 -0.039154023 0.09637457
000140 18 b6 7f bd ec 28 fc bc b0 a8 69 3c 64 c4 dc bd
       -0.062429518 -0.030781232 0.01426141 -0.10779646
000150 a1 b5 9a bd 9e 1f 26 bd b0 6a d5 3c b0 48 58 3c
       -0.07554174 -0.040557496 0.02605185 0.013200924
000160 60 84 85 bb d8 89 83 3d e8 3a b4 3d 70 db 39 3c
       -0.004074618 0.06422776 0.08800298 0.011343822
000170 ac 9c b1 bc 66 5f b9 bd 4a c4 1d bd d0 c8 9c bd
       -0.021681152 -0.09051399 -0.038517274 -0.076554894
000180 aa 27 81 bd 92 08 e5 3d 5c 22 85 bd cc cd a0 bd
       -0.063063934 0.11183275 -0.06500694 -0.07851753
000190 a8 92 f7 bc 36 b4 ac bd 30 ee 61 3c 30 17 e5 3c
       -0.030221298 -0.0843281 0.0137896985 0.027965158
0001a0 48 8a 0e bc 8c 60 e8 3d 74 4b fd bc 12 7d 9f 3d
       -0.008699961 0.1134654 -0.030919768 0.07787527
0001b0 b0 66 53 3d 6a 67 16 bd de 6f 98 3d b6 12 18 bd
       0.051611602 -0.036719717 0.07443212 -0.03712722
0001c0 1c 2f e0 3d 04 5a 95 3d 5a d4 8e 3d 32 9b 80 3d
       0.109464854 0.0729256 0.069740966 0.06279601
0001d0 8e 0f e3 3d c8 ef 03 bd a8 1c 42 bc 80 6c 91 3c
       0.11086951 -0.032211095 -0.0118476525 0.017751932
0001e0 c3 75 a8 bd 63 c5 78 bd 78 6c 23 3d f8 b3 d4 bd
       -0.08225586 -0.060735118 0.039898366 -0.10385889
0001f0 24 c6 9f 3d 28 3e 76 bc d4 e8 38 3d 40 7a cd 3b
       0.07801464 -0.015029468 0.045143917 0.006270677
000200 7a 9a c7 bd 7c e3 96 3d 86 85 53 bd 6e 42 31 bd
       -0.09746261 0.07367608 -0.05164101 -0.043276243
000210 5e 72 92 bd 3e c5 92 bd 18 9b cf 3c d6 72 dc 3d
       -0.0715072 -0.07166527 0.02534251 0.10764091
000220 7a 52 d8 3d 1e 38 2b bd 32 35 50 bd 90 5d 99 3d
       0.10562606 -0.041801564 -0.05083198 0.07488549
000230 34 15 e9 3d b0 2e 71 bd 04 eb a0 bd 4e 6c ba 3d
       0.11380997 -0.058882415 -0.07857326 0.09102689
000240 a0 aa 6f 3c 50 97 26 3d f8 98 48 bd 88 2d 50 3d
       0.0146280825 0.040671647 -0.048974007 0.050824672
000250 c8 ed 51 bd 82 51 84 3d 8c 73 98 3d 00 68 d8 3d
       -0.051252156 0.06460859 0.07443914 0.105667114
000260 2f 84 c0 bd 8c f9 1f bd b0 d8 2d bd 9e 58 c4 bd
       -0.09400212 -0.039056346 -0.042442977 -0.09587215
000270 ae 23 56 bd 72 f8 49 bd a8 82 90 3d f0 09 6a 3d
       -0.05228012 -0.0493092 0.07056171 0.057138383
000280 88 c3 bc 3c 80 77 bd 3a 72 a5 27 bd 00 cc bc 38
       0.023042455 0.001445517 -0.040929265 9.0025365e-05
000290 f8 ca 90 3d d4 3c 2a 3d 9e 91 d5 3d 0f a4 e9 bd
       0.07069963 0.041561916 0.10428165 -0.11408245
0002a0 e2 72 13 bd d9 80 7f bd 28 27 01 3d 78 20 37 bd
       -0.035998233 -0.062378738 0.031531483 -0.0447087
0002b0 28 b1 ce 3c e9 9d be bd 44 02 c2 bd 58 68 d7 3d
       0.025230959 -0.09307463 -0.094730884 0.10517949
0002c0 7a 23 98 bd 74 01 a4 3d e6 e8 ac 3d fe cc 78 bd
       -0.074286416 0.0800809 0.08442859 -0.06074237
0002d0 b9 d3 86 bd 08 b8 57 3d 66 b2 85 3d 92 4c b4 bd
       -0.06583352 0.05266574 0.065281674 -0.08803667
0002e0 f6 07 a3 3d 20 1f 94 bb a4 c0 d7 3d 1f b2 e8 bd
       0.07960503 -0.004520312 0.1053479 -0.11362099
0002f0 4c 64 25 3d be e6 ce bd f8 34 df 3c 12 07 eb bd
       0.040378854 -0.10102604 0.027246937 -0.11475958
000300 e8 ae a4 3c a8 34 23 3d b9 0b d8 bd a8 87 40 3d
       0.020102933 0.03984514 -0.10549111 0.047004372
000310 4c f5 48 3d 6c 3d cf bd 0a cb 48 bd 72 2e df 3d
       0.04906206 -0.10119137 -0.04902176 0.108975306
000320 90 59 09 3d 6e 64 d2 3d a6 68 51 bd 80 69 d2 3b
       0.03353268 0.10273062 -0.05112519 0.006421268
000330 f2 fb 8c 3d 80 a4 83 3b d0 3b 81 bb e6 88 c2 3d
       0.06883992 0.0040174127 -0.003943898 0.094987676
000340 d0 a4 d1 bd 68 c3 26 3d ec f4 4c 3d c8 03 af 3c
       -0.102365136 0.040713698 0.050038263 0.021364108
000350 a9 69 5e bd 30 0e 9a bc d4 8c 12 bd 7a c3 47 bd
       -0.054299984 -0.018805593 -0.035778835 -0.048770405
000360 d0 a9 6a bc 74 e0 df 3d 82 0e e5 3d 2c bd 0f bd
       -0.014322713 0.10931483 0.11184408 -0.035092518
000370 c0 e8 50 bc 18 0d 97 3d 90 2e 04 3c 98 d9 da bd
       -0.012750804 0.07375544 0.008067742 -0.10686034
000380 38 fe fe 3c 0c 75 75 3d 30 04 54 3d f0 79 f4 3b
       0.03112708 0.059926078 0.051761806 0.007460825
000390 ae f2 c9 3d 6c 21 d3 bc ad 92 b8 bd b2 9e c2 bd
       0.098607406 -0.025772773 -0.09012351 -0.09502925
0003a0 80 de 9e bb e1 fb e5 bd fd c4 71 bd 38 43 c5 bd
       -0.0048483014 -0.11229683 -0.059025753 -0.096319616
0003b0 a0 a6 ba bd 44 e8 e5 3d da c4 09 bd d0 f1 c6 3c
       -0.091138124 0.11225942 -0.033634998 0.024285227
0003c0 50 8f 92 3c 98 da 1f 3d 33 39 d9 bd ee 8a d7 bd
       0.017890602 0.039026827 -0.10606613 -0.105245456
0003d0 fc 55 e7 3d 94 5c ad 3d b9 fa cc bd fc dd 0c 3d
       0.11295697 0.084649235 -0.10008759 0.03439139
0003e0 81 12 b9 bd 40 12 8e ba 7c 20 1c 3d 3b 4c ca bd
       -0.090367325 -0.0010839179 0.038116917 -0.09877821
0003f0 d4 7c 7f 3d f0 d1 61 3c c3 85 b2 bd 94 fe 71 3d
       0.062374905 0.013782963 -0.08716919 0.059080675

conv1.bias f4 [6]
000000 b8 c5 83 3d b0 1e 17 3d 5e 3a 9a bd f4 18 14 3d
       0.06434196 0.0368945 -0.07530664 0.03615661
000010 e6 ac de 3d cc 32 24 3d
       0.108728215 0.040087506

conv2.weight f4 [16, 6, 5, 5]
000000 8e b9 ff bc 00 22 17 39 fd 41 3c bd 92 fb f4 bc
       -0.031216409 0.00014413148 -0.04596137 -0.029905114
000010 00 b5 4b 3c d8 b1 7c 3d 30 66 2b bc d0 43 b9 bb
       0.0124332905 0.061693043 -0.010461375 -0.005653836
000020 ed 76 a5 bd dc 59 75 bd b3 38 8f bd ee b3 c8 bc
       -0.08079324 -0.05990015 -0.069932364 -0.02449986
000030 12 32 cc bc 00 b0 b7 39 d4 7a 91 3d 09 e5 6e bd
       -0.02492622 0.0003503561 0.07103506 -0.058323894
000040 f9 46 9a bd 80 06 f0 ba 90 2d a5 3c 54 e7 be 3c
       -0.07533068 -0.0018312484 0.020163327 0.023303665
000050 5e 32 8e 3d c8 40 03 bc 87 85 04 bd c3 22 a4 bd
       0.069432005 -0.0080110505 -0.032353904 -0.08014443
000060 74 15 7b 3d 80 b5 91 bb 8b ee 13 bd 08 a6 b7 3c
       0.061299756 -0.0044466853 -0.036116164 0.022418037
000070 ce 40 08 3d 28 5e 57 3d 04 af af 3c 44 93 60 3d
       0.033264928 0.05258003 0.021445759 0.054827943
000080 72 ff 81 3d 5c d8 87 bc 34 11 80 3c ce ee 9e 3d
       0.063475505 -0.01658266 0.015633203 0.07760392
000090 3b 0b 92 bd 40 7b 67 3b 1a 21 a1 3d d4 fe c2 3c
       -0.07131048 0.0035321265 0.07867642 0.023803152
0000a0 00 09 26 bb 14 ed e2 bc 00 40 7e b8 22 b9 18 bd
       -0.0025334954 -0.027700938 -6.0617924e-05 -0.03728593
0000b0 a2 2b 63 bd c0 b1 d3 bb 30 4e 25 3c 4a 81 5b bd
       -0.055461533 -0.0064603984 0.010089442 -0.053590097
0000c0 94 ae c8 3c 04 63 89 bd dc b4 02 bd 18 18 5b bd
       0.024497308 -0.06708339 -0.031910762 -0.053489774
0000d0 58 45 6f 3d 0c 37 55 3d 14 a0 21 bd b8 34 14 3c
       0.05841574 0.05205445 -0.039459303 0.009045772
0000e0 52 64 07 bd f8 2e 69 bc 19 47 74 bd 5a 1a 43 bd
       -0.033054657 -0.01423239 -0.059638117 -0.047632553
0000f0 20 8f 83 3c d1 2b 83 bd ee f2 80 bd 90 c6 3a bd
       0.016059458 -0.06404842 -0.06296335 -0.04559952
000100 34 41 14 bd dc 15 39 3d 76 f2 1c bd d0 72 9f bc
       -0.036194995 0.045186862 -0.038317166 -0.019463927
000110 9c dd 95 bd a9 89 86 bd 30 ea 75 3c eb 31 17 bd
       -0.07317659 -0.06569225 0.015009448 -0.03691284
000120 68 71 1a 3d 31 82 25 bd 52 d1 80 bd 90 b6 6b 3c
       0.03770581 -0.040407363 -0.06289925 0.014386788
000130 a8 b8 23 bc 70 5a b4 bb a0 25 54 3b f1 33 3b bd
       -0.009992756 -0.005503945 0.003237106 -0.045703832
000140 a2 70 4e bd 90 4a 82 3b 53 97 84 bd e0 a1 40 3c
       -0.050400384 0.0039761737 -0.06474175 0.011757344
000150 5c d7 bc 3c 4a 4b 7f bd 99 b7 9e bd 94 e6 16 3d
       0.02305191 -0.06232766 -0.07749862 0.03684099
000160 3c 13 a7 3c 0b a7 9c bd 48 1a 09 bd 10 a4 92 bd
       0.020394914 -0.076490484 -0.03347233 -0.07160199
000170 60 e7 62 3b d0 71 2e bd 8a a2 72 bd 1c 4e 4c 3d
       0.0034622774 -0.04258901 -0.05923704 0.04987918
000180 23 2c 2b bd d8 95 7a 3d 68 fa d5 3c 28 60 a2 3c
       -0.04179014 0.06117806 0.02612038 0.019821241
000190 e8 51 0f bd 8e 44 05 3d 3a 5c 9f bd b8 c7 54 3d
       -0.03499022 0.032536082 -0.07781263 0.05194828
0001a0 28 1f 82 3d e8 09 96 3d 6e b4 5b bd 74 e7 87 bd
       0.06353599 0.07326108 -0.053638868 -0.06635943
0001b0 d1 ce 9e bd 08 f7 68 bc b1 d1 4d bd 8d 78 8a bd
       -0.07754291 -0.014219053 -0.050248805 -0.067612745
0001c0 8e 72 f5 bc 55 1f 77 bd 30 86 0c 3c 90 39 cf bc
       -0.02996185 -0.060332615 0.008576915 -0.025296003
0001d0 a0 e6 35 bb 06 5d 9f bd f8 ac 26 3c b2 aa 07 bd
       -0.0027755871 -0.07781415 0.010173075 -0.033121772
0001e0 5c cc 57 3d 48 e9 73 3c 12 0e b4 bc 54 a7 32 3d
       0.052685127 0.014887162 -0.021979365 0.043616608
0001f0 4e d5 15 bd 30 ce de bc 9e 81 8d 3d e2 59 a6 bd
       -0.036580376 -0.027197927 0.06909488 -0.081226125
000200 da cc c3 bc 48 0e 3c 3c 94 14 ad bc fa df 1b 3d
       -0.023901392 0.011478014 -0.021127976 0.038055398
000210 10 11 2f 3d 98 95 51 bc 44 11 e7 3c e0 4d b1 3b
       0.04274088 -0.012792014 0.028206475 0.0054108948
000220 0a 2f e2 bc 6c a4 45 3d 50 0a 99 3d 2c 3f 77 3d
       -0.02761032 0.048252508 0.0747267 0.06036298
000230 4f 57 92 bd 28 82 64 3c 68 99 22 bd e0 77 6d 3d
       -0.07145559 0.013947047 -0.03969708 0.05797565
000240 a2 76 2b bd f8 66 23 3c 17 b0 20 bd 90 7d 9f bc
       -0.041861184 0.00997328 -0.039230432 -0.019469053
000250 88 14 d1 3c 4c 56 05 3d 08 07 ce 3c d4 f6 c7 bc
       0.025522485 0.032553002 0.025149837 -0.024409689
000260 38 df 56 3d 97 0b 38 bd c0 d0 bd 3b 16 06 81 3d
       0.05245897 -0.044932928 0.005792707 0.06299989
000270 9c bb 76 3d e6 43 2f bd 60 c2 cc 3b 22 07 08 3d
       0.060237512 -0.042789362 0.0062487572 0.033209927
000280 f8 f6 8e bc 44 86 a6 3d c3 8a 11 bd e4 46 aa 3c
       -0.017451748 0.08131078 -0.035532724 0.020785756
000290 7e ea a3 bc b8 e5 8c 3d 9e 5b 34 bd b4 d8 7a 3d
       -0.020009276 0.06879753 -0.044032685 0.06124182
0002a0 c4 f5 51 bd c7 24 68 bd 37 80 75 bd 89 1b 98 bd
       -0.05125977 -0.0566757 -0.05993673 -0.07427127
0002b0 06 14 13 3d 40 bc 1d 3c 20 29 6d bc cb a8 14 bd
       0.035907768 0.009627402 -0.014475137 -0.036293786
0002c0 30 68 33 bc 98 ea 75 3d 5a 45 2d 3d 46 63 53 bd
       -0.010950133 0.06003818 0.042302467 -0.051608346
0002d0 60 26 70 3d 40 e1 40 3d 20 1c 77 bc bc bc eb 3c
       0.058630347 0.047089815 -0.015082389 0.028776519
0002e0 00 e7 02 3b 00 4d d5 3b 64 86 73 3d 98 2d a1 3d
       0.0019974113 0.0065094233 0.059454337 0.078700244
0002f0 90 34 39 3d 22 65 74 bd ce fd d2 bc c6 80 9a bd
       0.045216143 -0.05966676 -0.02575579 -0.07544093
000300 a9 d6 63 bd f8 24 60 bc 10 ff e3 3c 80 0c d9 3c
       -0.055624638 -0.013680689 0.027831584 0.026495218
000310 00 3f 93 bc 33 1c 2d bd 54 7e 32 3d 4c 55 a4 3d
       -0.017974377 -0.04226322 0.043577507 0.080240816
000320 61 51 99 bd 3c 2f 82 bd f4 b1 94 3d 90 52 72 bd
       -0.07486225 -0.063566655 0.07260504 -0.05916077
000330 14 75 99 3d e0 04 98 3c c0 45 4c bc 40 94 d5 3a
       0.07493034 0.018557012 -0.012467802 0.0016294792
000340 6c c8 63 3d 44 cc 56 3d 44 56 e6 bc b4 43 7d 3d
       0.05561106 0.052440897 -0.028117307 0.061832145
000350 04 b0 cd 3c f2 fa 1d 3d a2 a3 93 3d 76 22 87 bd
       0.025108345 0.0385694 0.07208945 -0.0659837
000360 0e c1 a1 bd 4a 0c 92 bd 6e 1e 1a 3d e8 aa b3 3c
       -0.078981504 -0.0713125 0.037626676 0.02193208
000370 94 b1 a1 3c bc 5d 8d 3d 48 a0 81 bd 65 f8 89 bd
       0.019737996 0.06902644 -0.06329399 -0.067368306
000380 10 86 39 3d e8 24 0e bd 80 2c 29 bb 4a a1 d8 bc
       0.045293868 -0.034703165 -0.0025813878 -0.026444096
000390 10 7c ca bc ea 56 16 3d 9c 0b c0 3c 83 66 0a bd
       -0.02471736 0.03670398 0.023443036 -0.03378917
0003a0 e0 af 31 3c 10 7d 13 3d 24 b9 9b 3c 6c 8b 04 3d
       0.0108451545 0.03600794 0.01900918 0.032359526
0003b0 10 4a 9a bc 24 55 af 3c 6a 5a 26 3d 44 7a 40 bd
       -0.018834144 0.021402903 0.04061357 -0.0469916
0003c0 b1 19 84 bd 38 64 0f 3d 0e 8d 1a 3d 68 02 b3 bc
       -0.06450213 0.035007685 0.037732176 -0.021851733
0003d0 9d 7d 87 bd c0 de 23 bb 3c ce bc 3c f2 fd 1d 3d
       -0.06615756 -0.0025004596 0.023047559 0.03857226
0003e0 e8 d6 3a 3c 15 da 27 bd bc 73 88 bd 30 36 63 bc
       0.011403777 -0.040979464 -0.066626996 -0.0138679
0003f0 9e c0 84 3d 04 b6 5a 3d d0 f1 41 bc e8 9a ba bc
       0.06482051 0.05339624 -0.011837438 -0.022778943

conv2.bias f4 [16]
000000 a5 a9 9e bd 3c a4 9a 3d 68 d6 69 bd d3 59 9a bd
       -0.07747201 0.075508565 -0.05708924 -0.07536664
000010 2c 85 94 bc 03 e6 a5 bd 1e 56 31 3d 80 26 76 ba
       -0.018129908 -0.08100512 0.04329502 -0.0009389892
000020 70 a2 3b 3d e0 fd 9b bb 20 64 07 3b dc a2 0d bd
       0.04580921 -0.004760489 0.0020659044 -0.034579143
000030 b4 20 d7 3c 80 d8 46 3d 84 f8 7f bd 30 93 53 3d
       0.026260711 0.048546314 -0.062492862 0.05165404

fc1.weight f4 [120, 400]
000000 17 63 ec bc 85 47 4c bd 52 df f2 3c 13 01 fb bc
       -0.028855843 -0.049872894 0.029647503 -0.03064016
000010 e2 29 87 3c 00 82 4d ba 67 9a 34 bd 52 92 d2 3c
       0.016499463 -0.0007839501 -0.044092562 0.025704537
000020 32 ec 1e bd 30 63 37 3b 5f 2c 20 3d 35 13 2a bd
       -0.038799472 0.0027982704 0.039104816 -0.041522224
000030 d8 e2 e5 bb ad 49 0a bd 74 91 76 bc d5 a4 2b bd
       -0.0070155673 -0.03376167 -0.015049327 -0.041905243
000040 91 e8 1c 3d 7c 83 08 bd 88 1a 31 bd d4 e1 3b 3c
       0.03830773 -0.03332852 -0.043238193 0.011467416
000050 d8 52 a5 3b d1 f9 34 3d d8 ec ee bb 30 d4 c3 bb
       0.005045276 0.044183556 -0.0072914176 -0.0059762225
000060 d5 28 0b bd 0c 55 59 3c a4 ce 78 3c 80 15 11 bc
       -0.033974487 0.013264906 0.015185986 -0.008855224
000070 00 1b ba ba e8 2f 39 3c 74 67 0d bc a5 9c 0a bd
       -0.001419872 0.011302926 -0.008630622 -0.033840794
000080 48 66 12 3c a8 bb 8a bb 7d 21 31 bd 62 d2 fa 3c
       0.008935519 -0.004233796 -0.043244828 0.030617896
000090 60 68 84 bc 5c cb 8c bc 50 8f f6 3b 54 a5 15 bc
       -0.016163051 -0.017186813 0.0075244084 -0.009133656
0000a0 40 43 40 3a 82 09 8c 3c 30 6c 87 bc d0 9d db bc
       0.000733424 0.017094377 -0.01653108 -0.02680865
0000b0 60 9c 5a bc fb de 2d 3d 96 75 8e bc e1 d0 11 3d
       -0.013342947 0.04244898 -0.017390054 0.035599593
0000c0 03 63 2c 3d c0 89 d3 bb 1a 28 0f bd 80 22 8d 39
       0.042086612 -0.00645563 -0.034950353 0.0002691932
0000d0 22 90 d3 3c 6a 22 c7 bc 12 82 d4 3c 58 33 53 bc
       0.025825564 -0.024308402 0.025940929 -0.012890659
0000e0 c9 af 42 3d 15 84 31 bd b8 2e 65 bc e8 8f 44 bd
       0.047530923 -0.043338854 -0.013988189 -0.047988802
0000f0 82 2c 22 bd 18 89 13 3c 00 c2 e7 3b 00 e6 04 b9
       -0.039593227 0.009004854 0.007072687 -0.00012674183
000100 a2 a4 4b bd 20 41 4b 3c cb b3 11 bd 33 24 2c 3d
       -0.049717553 0.012405664 -0.035571855 0.04202671
000110 5d bc 18 3d 03 5d 9a bc 57 b8 f6 bc e3 55 38 bd
       0.037289012 -0.01884318 -0.030117197 -0.045003783
000120 fa 5f bd 3c 96 50 0e bd a3 a4 e6 bc a0 7e ed bc
       0.023117054 -0.03474482 -0.028154677 -0.028991044
000130 e0 66 2f 3c c0 26 f4 3a 41 2e 41 3d a6 96 db 3c
       0.01070568 0.0018627271 0.04716325 0.026805233
000140 92 7c 9d 3c 68 39 2a bc cc 98 4b 3c 69 b3 02 3d
       0.019224439 -0.010389663 0.012426566 0.03190938
000150 cf e5 05 3d 9b c0 2c bd 53 c9 b9 bc 72 87 21 bd
       0.032689866 -0.04217587 -0.022679007 -0.03943581
000160 3d 33 17 bd f7 8a d2 bc 54 96 0a bc e9 e4 3b 3d
       -0.0369141 -0.02570103 -0.008458693 0.045872603
000170 6f 6e 2f bd 8e 56 e7 3c 27 c8 31 bd fd af 2b 3d
       -0.042829927 0.028239515 -0.04340377 0.041915882
000180 9e 76 10 bd d2 5a db 3c b7 e3 a3 bc aa 54 bc 3c
       -0.035269372 0.026776705 -0.020006044 0.02298959
000190 c1 7f 2c 3d 30 1a c5 3b 4d 5d c3 bc 4a 38 93 3c
       0.042114023 0.0060150847 -0.0238482 0.017971177
0001a0 a8 03 fd bb bd 42 a7 bc 00 4c ad b8 77 3a 30 3d
       -0.007721383 -0.020417565 -8.263439e-05 0.043024506
0001b0 c0 fa 6d bc 6a 26 82 3c 71 3a 37 3d 6d 72 f0 bc
       -0.0145251155 0.015887458 0.04473347 -0.029351437
0001c0 be 4e 9d 3c 58 56 e2 bb a0 35 4d bc 30 cb c5 bc
       0.019202586 -0.0069072656 -0.012524992 -0.024144739
0001d0 60 bb 1c bd e3 4e e0 bc b3 82 d3 bc 49 0d 41 3d
       -0.038264632 -0.027381366 -0.025819158 0.04713181
0001e0 c6 a8 88 3c 60 f3 0d bd 85 e9 10 3d 0b 54 0a 3d
       0.01668204 -0.03465593 0.03537895 0.033771556
0001f0 45 94 45 bd 93 9d cb bc 07 08 c3 bc 20 1d 39 3b
       -0.048237104 -0.02485541 -0.023807539 0.002824612
000200 e8 8f 1b bc f0 d8 06 bd 90 dc 9c bc 5d d9 9b bc
       -0.009494759 -0.03292173 -0.019148141 -0.019024545
000210 0c 47 99 bc 80 45 90 b9 f0 9e 00 bd 2a 55 eb 3c
       -0.018710636 -0.00027517602 -0.031401575 0.028727133
000220 c2 07 a3 3c 6a 40 dc 3c 62 ec 91 3c 12 83 9c 3c
       0.01990116 0.026886184 0.017812911 0.019105468
000230 80 1a af bc b0 26 4f bb 0f a7 22 3d b7 5b a5 bc
       -0.02137494 -0.0031608753 0.0397101 -0.020185335
000240 4a 3e f3 bc 96 05 8e 3c 20 8d 25 bd 00 6a 8d bc
       -0.029692788 0.017336648 -0.04041779 -0.017262459
000250 e0 bc 65 bc 1a 46 83 bc d0 b0 7b 3b d0 a5 de bc
       -0.014022082 -0.016024638 0.003840495 -0.027178675
000260 f5 f0 1d bd 71 5d 1f 3d d4 27 6a 3c 30 a2 b1 bc
       -0.038559873 0.038907472 0.014291722 -0.021683782
000270 00 94 11 3c 00 23 05 bb ab 59 04 3d 22 eb 10 bd
       0.008885384 -0.002031505 0.032312077 -0.03538049
000280 1e f1 1c bd 98 f0 ee bb ba 6d e1 bc c1 71 0c 3d
       -0.038315885 -0.0072918646 -0.027518142 0.03428817
000290 d2 78 bf 3c 92 79 9a 3c 40 38 89 3b bb f1 2b 3d
       0.023373041 0.018856797 0.0041876137 0.04197858
0002a0 fb 08 22 bd ac 2c 34 3c 7a 06 d9 3c db 90 42 3d
       -0.039559346 0.010996979 0.026492346 0.047501426
0002b0 55 8a 4c bd a0 bb 13 bc 63 c5 9b bc 79 b3 43 3d
       -0.04993661 -0.009016901 -0.01901502 0.04777858
0002c0 bd 8a c6 bc 42 5d 98 3c 11 ae 3f 3d e8 e6 96 3b
       -0.024236077 0.018599156 0.046796862 0.004605163
0002d0 60 c2 10 bc d6 d2 e1 3c 30 cf 13 bb 28 3d c9 bb
       -0.008835405 0.027566355 -0.0022553913 -0.0061413236
0002e0 a0 3d fe 3a 81 5d 0f 3d 06 d5 83 bc a0 87 b9 3a
       0.0019397028 0.03500128 -0.016092788 0.0014154799
0002f0 a2 67 da 3c 53 a5 b5 bc af 0a 13 3d 4a 92 bb bc
       0.026660744 -0.02217356 0.03589886 -0.022896904
000300 70 e3 ae bb 88 fc 12 bd e8 0c 9e bb 92 f5 ce 3c
       -0.0053371713 -0.035885364 -0.004823316 0.025263581
000310 50 07 df bb ec 3d 66 bc ec 51 49 bc 4a 28 a9 3c
       -0.0068062916 -0.014052849 -0.012287598 0.020649094
000320 70 aa 48 bd 5f 3e 05 3d 84 04 56 3c 26 d2 0b bd
       -0.048990667 0.032530185 0.0130626 -0.03413596
000330 06 69 f3 3c 51 d2 33 3d 3d 6f 21 3d a4 ee 6a 3c
       0.029713165 0.043901745 0.039412726 0.014339123
000340 76 c2 fd 3c 58 a0 c7 bb ef 6e 02 3d dd 25 43 bd
       0.030976515 -0.0060921125 0.031844076 -0.04764353
000350 cc 11 5a bc 10 43 91 bb 2c 17 5f 3c f4 b6 4f 3c
       -0.013309907 -0.0044330433 0.013616364 0.012677897
000360 10 c9 de bc 5d 85 05 3d 73 3d 05 3d ec 78 6a bc
       -0.027195483 0.03259789 0.032529306 -0.014311057
000370 b0 59 76 3b 19 31 0e 3d 00 a4 46 bd e9 12 1d 3d
       0.003759008 0.034714792 -0.048496246 0.038348112
000380 37 69 ad bc ae 32 ad 3c d2 f8 f2 3c fd 3d 3f 3d
       -0.021168334 0.02114233 0.029659662 0.046689976
000390 5a bf 9a bc 02 e5 f6 3c 80 41 e6 b9 1d fb 19 bd
       -0.018890072 0.030138496 -0.0004391782 -0.037592996
0003a0 3e b2 19 bd 5b 8c 21 3d 00 10 c5 b7 2a a3 86 bc
       -0.0375235 0.039440494 -2.349168e-05 -0.016435225
0003b0 ed 83 39 bd c7 5f 37 3d e2 6e 39 bd ca f8 f5 3c
       -0.04529183 0.044769075 -0.04527176 0.030025858
0003c0 58 97 81 3b 82 b4 23 bd 62 6b f5 3c 94 b9 75 3c
       0.003954809 -0.039967068 0.02995843 0.014997859
0003d0 ee 03 1c bd 24 8f 6d 3c 58 6e b1 3b 38 27 27 bd
       -0.038089685 0.014499459 0.0054147653 -0.040808886
0003e0 15 e3 48 bd 34 4d 38 bc fd 3b 44 3d 9a f0 fa bc
       -0.049044687 -0.011248875 0.04790877 -0.030632306
0003f0 14 ad 79 3c 92 4d fc 3c fa 46 e0 bc f6 ad fa 3c
       0.015239019 0.030798707 -0.027377594 0.03060053

fc1.bias f4 [120]
000000 f2 05 e3 3c 5e 99 10 bd 18 a8 32 bd 6c 51 08 bc
       0.027712796 -0.035302512 -0.043617338 -0.008320194
000010 56 1b ec 3c 00 70 f9 b8 08 0d 42 3c bc 7d 72 3c
       0.028821629 -0.00011894107 0.011843927 0.014800485
000020 f3 6f 1a bd 70 83 91 3b 69 83 13 3d e0 73 06 bd
       -0.03770442 0.0044407174 0.036013994 -0.03282535
000030 37 d0 f3 bc 7d 6f ff bc df 22 26 3d a0 91 b8 ba
       -0.02976237 -0.031181091 0.0405606 -0.0014081486
000040 1a f2 d4 3c 3f b5 41 3d 82 71 ba 3c c0 05 ab 3a
       0.02599435 0.04729199 0.022759203 0.0013047978
000050 bb a2 49 bd 08 8a 0b 3c 1a 0a 8a bc a0 14 73 bb
       -0.049227457 0.008516796 -0.01685052 -0.003709115
000060 d8 2b 05 bc 30 6e f0 bc c0 55 88 ba ca 57 d1 3c
       -0.008128129 -0.029349416 -0.0010401532 0.025554556
000070 66 4d cf 3c 50 d6 1d 3b 2b 7f 37 bd bc 31 6a 3c
       0.025305461 0.002408404 -0.04479901 0.014294084
000080 cc ff 67 3c 74 77 2c 3c 5e 4e ae 3c 4a ac e2 3c
       0.014160108 0.010526527 0.021277603 0.027670044
000090 a6 a6 f1 3c 9f 53 43 bd 1e 96 fa 3c 7d 70 21 bd
       0.02949841 -0.04768717 0.03058916 -0.039413918
0000a0 3a c9 97 bc 0a 92 1b bd 58 f2 22 3c a8 87 3a bc
       -0.01852857 -0.03798107 0.009945475 -0.011384882
0000b0 cd 6b e2 bc 84 98 7a 3c a0 7f 7f 3b dd ec 26 3d
       -0.027639294 0.015295152 0.0038985983 0.040753234
0000c0 90 cf ba bc 80 02 53 3a 33 4e 06 3d b1 4c 18 3d
       -0.022804052 0.0008049384 0.03278942 0.037182514
0000d0 80 de fb bc 84 0c 90 bc e8 cd 4c bc 57 b8 27 3d
       -0.030745745 -0.017584093 -0.012500264 0.040947285
0000e0 90 3b 9c 3b 2d 6b 36 bd 57 a2 c6 bc b9 58 49 3d
       0.0047678426 -0.044535805 -0.024247332 0.04915688
0000f0 00 32 5d ba 8f 51 37 bd 80 c5 25 bc e3 da 34 bd
       -0.00084379315 -0.044755515 -0.010117888 -0.04415406
000100 42 64 15 bd df c4 2f bd a6 75 2a bd ea 36 2c bd
       -0.036472566 -0.04291236 -0.041616105 -0.042044558
000110 1b ea 45 bd d2 54 8c 3c 65 6e 20 bd f0 c6 9f bb
       -0.048318963 0.01713029 -0.03916778 -0.00487601
000120 b0 da d2 bc 32 3f 38 bd 62 d2 94 3c 60 1b db 3a
       -0.025739044 -0.044982143 0.018166725 0.0016716532
000130 4f a6 3d bd 80 04 5d ba 30 eb ee bb f9 8c 24 3d
       -0.046301182 -0.00084311515 -0.00729122 0.040173505
000140 21 91 11 3d f6 e0 b1 3c b6 03 29 bd 60 16 4c bb
       0.035538796 0.021713715 -0.041263305 -0.0031141266
000150 f6 10 f6 3c 51 64 44 3d 11 73 3e 3d 73 e2 ef bc
       0.030037384 0.04794723 0.046496455 -0.029282784
000160 80 ff 38 3c 8d fe 32 bd 10 63 25 bd b7 06 01 3d
       0.011291385 -0.04369979 -0.040377676 0.031500544
000170 7e 29 90 3c 6a 8c 27 bd 50 ea 98 bc 61 09 23 3d
       0.01759791 -0.040905394 -0.018666416 0.039803866
000180 b2 cd da 3c 00 20 05 38 68 d7 8e 3b 58 a4 21 3c
       0.026709411 3.1739473e-05 0.0043591745 0.009865843
000190 65 e8 04 bd 28 9c ce 3b b8 4f 58 bc 33 df b1 bc
       -0.03244819 0.0063052364 -0.0132026 -0.021712875
0001a0 4b 74 11 bd ea 10 f3 3c be 0a 83 3c f4 28 23 bc
       -0.035511296 0.029671151 0.015996333 -0.009958494
0001b0 0a f3 c5 3c d8 99 15 bd fe e6 93 3c 5d 18 eb bc
       0.024163742 -0.03652367 0.018054482 -0.02869814
0001c0 6a 18 d8 3c 31 ad 0c 3d 18 e5 07 bc d0 0f 9d bc
       0.026378829 0.034344856 -0.008294366 -0.019172579
0001d0 0d 9a 2c bd 9e 7c 92 3c e6 e7 83 3c 48 e0 1f bd
       -0.0421391 0.017881688 0.016101789 -0.03903225

fc2.weight f4 [84, 120]
000000 23 ee 95 bd ec ad a3 3d a0 0b 74 3d b2 92 97 bd
       -0.073208116 0.07992157 0.0595814 -0.07401027
000010 58 07 9e 3d 83 26 8b bd e2 05 01 bd da 20 b0 bd
       0.077162445 -0.06794455 -0.03149975 -0.08600016
000020 1c ce 8d 3c 40 ce 87 3b f8 a1 53 3d 01 cf ac bd
       0.017310195 0.00414446 0.051668137 -0.0843792
000030 fe 4e 2e bd 00 0f 36 bb ac 61 9b bd 4c 84 a6 3d
       -0.0425558 -0.0027779937 -0.07586989 0.081307024
000040 00 52 a2 bc b5 b2 2d bd db 64 b7 bd 70 03 b1 bd
       -0.019814491 -0.042406756 -0.089547835 -0.08643234
000050 3c 77 9c 3d dc 70 e4 bc 50 2f ba 3c 7c e1 86 bd
       0.0763993 -0.027885847 0.022727638 -0.065859765
000060 a3 6e 85 bd 30 0d 2d 3d 14 a2 ab bc 52 11 a7 3d
       -0.06515243 0.042248905 -0.020951308 0.081576005
000070 fc ab 83 bd 64 eb a6 bd 88 6c 4c 3d 20 c2 2b bb
       -0.06429288 -0.08150366 0.04990819 -0.0026208237
000080 ac f5 0b 3d f3 45 b8 bd 40 1e 75 bc 93 81 74 bd
       0.034169838 -0.08997717 -0.014960825 -0.059693884
000090 68 8b 85 3d 49 08 7e bd b8 99 99 3d ab 0c 0d bd
       0.0652073 -0.06201962 0.07500023 -0.03443591
0000a0 f4 de 87 3d 98 ab 7b 3d 56 71 98 bd f0 e4 62 bc
       0.06634322 0.06144294 -0.07443492 -0.013848528
0000b0 5c 8d eb bc 00 b1 47 ba bd 3b 98 bd 9f 4a 00 bd
       -0.028753929 -0.00076176226 -0.07433269 -0.031321164
0000c0 d8 32 d8 bc ce b3 9f 3d f2 56 71 bd 70 22 9e 3d
       -0.026391432 0.07797967 -0.058920808 0.07721412
0000d0 7c 6f fb 3c a0 0c 60 bd e8 95 51 3c 72 40 64 bd
       0.030692808 -0.05469954 0.012792088 -0.055725522
0000e0 8c a4 78 bd f2 42 99 bd 78 38 14 3d 0a 9d aa 3d
       -0.0607038 -0.07483472 0.036186665 0.08330734
0000f0 d6 fd 05 3d fc 3d 1b 3d 80 df 24 bd c2 29 98 bd
       0.03271278 0.03790091 -0.04025221 -0.0742984
000100 9b 32 33 bd 14 25 27 bd 6b b3 1d bd 83 db 86 bd
       -0.043749433 -0.040806845 -0.038501184 -0.06584837
000110 38 70 c9 bc a8 93 23 3d 04 48 07 3d 8c 8e 02 3d
       -0.024589643 0.039935738 0.033027664 0.031874225
000120 02 fa 8f bd a4 e0 65 3d 5c 35 16 3d 30 d1 86 3d
       -0.07030107 0.056122437 0.03667198 0.06582868
000130 40 78 4f 3d 08 b4 83 bd d0 48 86 bb 60 32 0e 3c
       0.05065179 -0.064308226 -0.0040980354 0.0086790025
000140 ca f0 b7 3d 14 78 aa bd 00 0d 81 3d dc 83 63 3d
       0.08981474 -0.08323684 0.06301308 0.055545673
000150 c0 d2 ef 3b bc da 98 3d 71 06 a4 bd 7a eb ae 3d
       0.0073188245 0.07463595 -0.08009041 0.08541007
000160 9a 81 a0 3d c0 c4 46 bc a2 20 b5 3d e6 cb 83 3d
       0.078372195 -0.01213187 0.08844115 0.06435375
000170 88 13 5a bc 30 75 80 bd 7d b3 60 bd 98 9d 95 bc
       -0.013310321 -0.06272352 -0.054858673 -0.018263623
000180 e3 6f a7 bd f4 88 2c 3d 3c 70 b2 3d 90 12 bc bb
       -0.081756376 0.042122796 0.08712813 -0.0057395175
000190 3c 89 80 bd eb 85 1b bd 30 80 40 bc 68 ad 9b 3d
       -0.062761754 -0.03796951 -0.011749312 0.07601434
0001a0 08 95 93 3d 11 82 96 bd f0 64 39 bc 03 ff 18 bd
       0.0720616 -0.07349027 -0.011315569 -0.037352573
0001b0 70 fa b6 3d 50 c3 1d bc 50 31 c2 bb c2 14 31 bd
       0.08934486 -0.009629086 -0.0059262887 -0.043232687
0001c0 7c 06 b1 3d fc 5d 08 3d 10 64 a7 3c 20 07 3c 3d
       0.08643815 0.033292755 0.020433456 0.045905232
0001d0 5c 8d 1f 3d c4 5f 2b bd 8d 87 73 bd 2c 44 d4 3c
       0.03895317 -0.041839376 -0.059455443 0.025911413
0001e0 b4 5f 4b 3d 06 d2 a1 bd 98 5e 94 3d 9c 92 17 3d
       0.049651816 -0.07901387 0.07244605 0.037005052
0001f0 38 ff 6c bc 00 14 5f 3d 08 98 3d 3d bc cc 85 bd
       -0.014465146 0.054462433 0.046287566 -0.065331906
000200 70 e3 b0 bc 79 9e 37 bd dd 86 56 bd 80 55 95 3b
       -0.021592826 -0.044828866 -0.05237471 0.0045573115
000210 04 3e 0e 3d 10 67 d2 bb 48 35 07 bd 28 b6 7c 3c
       0.03472711 -0.0064209774 -0.033009797 0.015424289
000220 ec 20 a3 3d 80 5b a3 bc af 54 b8 bd 35 7d 83 bd
       0.07965264 -0.019941092 -0.09000527 -0.06420366
000230 10 c4 16 3d de 7a b3 3d 00 72 08 bc e4 a7 61 3d
       0.036808074 0.087636694 -0.008327961 0.055091754
000240 70 ab e2 3b 30 64 9c 3d 60 93 aa 3d e0 54 5b bd
       0.0069174096 0.07636297 0.08328891 -0.05354774
000250 f4 52 da bc f0 07 c4 bc 38 36 9a bc ec 83 2d bd
       -0.026650883 -0.023929566 -0.018824682 -0.04236214
000260 0a 12 88 3d cc e0 16 3d 03 d5 ac bd bc b7 60 3d
       0.06644066 0.036835477 -0.08439066 0.054862723
000270 7c ad 19 3d 0f 4e 59 bd d0 e2 a6 3c 4c 04 1a 3d
       0.037518963 -0.053052958 0.020371825 0.037601754
000280 c4 94 70 3d 84 42 4f 3d 03 9d 30 bd c0 c8 c7 ba
       0.058735624 0.050600544 -0.043118488 -0.0015242323
000290 10 d3 64 3d 92 63 b3 bd 58 8c 44 3d 8c 28 a4 3d
       0.055865347 -0.08759226 0.047985405 0.08015546
0002a0 8b 04 3f bd 88 e8 69 3d f1 e7 5f bd 80 bf 6c 3d
       -0.046635192 0.057106525 -0.054664556 0.057799816
0002b0 c0 75 97 3d fc a9 dc 3c 78 ed 5d bd 1e a2 2e bd
       0.07395506 0.026936524 -0.054181546 -0.042635076
0002c0 10 86 83 bd b4 61 bb 3c 40 18 c4 3a d0 ba fe bb
       -0.06422055 0.022873737 0.001496084 -0.0077737346
0002d0 28 8a 8e 3d e4 5e 19 3d 20 69 23 3d e1 8a 4c bd
       0.06959945 0.03744401 0.039895177 -0.049937133
0002e0 ac dc db bc ac 77 a9 bd f4 32 c1 bc c8 9b 8f 3d
       -0.026838623 -0.08274779 -0.023583867 0.07012135
0002f0 ee a7 81 bd 18 5a 53 3d f8 1e 56 bc 5c 08 95 3d
       -0.06330858 0.051599592 -0.013068907 0.07276985
000300 e4 35 b7 bd a8 e9 a9 3d 52 45 b5 bd cc 50 2d 3d
       -0.08945826 0.082965195 -0.088511124 0.042313382
000310 f0 81 d8 3b 6d c2 b1 bd 82 67 ec bc e8 cb ec 3c
       0.0066072866 -0.08679662 -0.02885795 0.028905824
000320 80 a5 eb ba fc a1 65 3d 1c 2d 00 3d f6 b9 9e 3d
       -0.00179784 0.056062683 0.03129302 0.07750313
000330 2c 76 15 3d 20 1b f4 3c 28 7d 0a 3c 00 a0 19 bb
       0.03648965 0.02979809 0.008452691 -0.0023441315
000340 1c a2 b8 bd 00 65 91 3a b4 21 0f 3d b0 70 cd 3b
       -0.09015295 0.0011092722 0.03494425 0.006269537
000350 94 fa 7a 3d ec b9 34 3d 66 8b 86 3d a0 4e 0f 3c
       0.061274126 0.04412262 0.06569557 0.008746773
000360 ab 46 5b bd 0c d4 a0 bc 00 9f 75 3d d6 c6 99 bd
       -0.05353419 -0.019632362 0.059966087 -0.07508628
000370 58 07 9b bc 88 05 1f bc 68 53 b9 bd b4 ad ed 3c
       -0.0189244 -0.009705909 -0.090491116 0.029013492
000380 58 09 35 3d 74 98 6f 3d 40 2e ca bb e0 5c d8 3b
       0.044198364 0.058495 -0.006170064 0.0066028684
000390 18 ed f3 bc d0 aa eb 3c 02 a0 3c bd 8e cb a2 3d
       -0.029776141 0.028767973 -0.046051033 0.07948981
0003a0 cd a1 a7 bd 78 2d c0 3c 00 48 b0 38 4a 3e b6 bd
       -0.08185158 0.023459181 8.405745e-05 -0.088985994
0003b0 26 6e ae bd 45 2e 76 bd 58 ab 17 3d d0 13 b6 bd
       -0.08517103 -0.06010272 0.03702864 -0.08890498
0003c0 9d 3a b2 bd fa c7 1f bd e0 8c ba 3d a4 12 5e 3d
       -0.08702586 -0.039009072 0.09108901 0.054216996
0003d0 b4 c0 ad bd f0 72 1c 3d d4 b4 15 3d 1d ea 6f bd
       -0.08484021 0.03819555 0.036549404 -0.058572877
0003e0 c2 86 59 bd a2 9d b1 3d 4c 81 62 bd bb 0e 10 bd
       -0.05310703 0.08672644 -0.05529909 -0.035170298
0003f0 64 8e 99 3c 04 ea 6b 3d 25 f4 5a bd c0 90 07 3d
       0.018744655 0.05759622 -0.05345549 0.03309703

fc2.bias f4 [84]
000000 50 1f 58 3d c0 aa c0 3a 10 0d 5b 3c e8 a0 ff bc
       0.052764237 0.0014699325 0.013369814 -0.031204656
000010 58 ac 05 3d 54 66 9f 3c 1c c4 90 bd f8 55 89 3d
       0.032635063 0.019457974 -0.07068655 0.0670585
000020 e4 7a 78 bd 24 2d 42 bd 40 60 b3 3b 98 63 50 3c
       -0.060664073 -0.04740633 0.0054741204 0.0127190575
000030 52 16 77 bd b0 85 8a 3c af 3a 3a bd a8 47 f7 3c
       -0.06032402 0.01690945 -0.04546612 0.030185536
000040 57 ab 3d bd 10 85 9b 3b 6c 6f a9 bc 58 dc cf bc
       -0.04630598 0.004746087 -0.020683013 -0.025373623
000050 12 50 96 3d b4 f7 93 bd a4 38 01 3d 7e fa b8 3d
       0.07339491 -0.0722498 0.031548157 0.090321526
000060 80 24 fd bc 90 08 1d 3d b2 98 b3 3d 78 d0 4a bd
       -0.030901194 0.038338244 0.08769359 -0.049515218
000070 9c fb 35 3d d8 1d 2b bc 50 61 e2 3b a8 04 99 3c
       0.044429407 -0.010444127 0.006908573 0.018678978
000080 7a ce a9 3d a8 6f 27 bc ec e0 80 bd 3c 82 f9 3c
       0.082913354 -0.010219492 -0.062929004 0.030457608
000090 ca cd 00 bd dd eb ad bd f0 50 bb bb 6c 30 f3 3c
       -0.031446256 -0.08492253 -0.0057164356 0.029686175
0000a0 fa bc 9f 3d fe 26 94 3d 3d a2 30 bd 90 14 54 3d
       0.07799716 0.07234 -0.043123472 0.051777422
0000b0 64 57 93 3c c8 c7 8b bc 0c ee f6 3c 90 7b 12 3c
       0.017986007 -0.017063037 0.030142806 0.008940592
0000c0 6a 7c 7f bd a0 8a d1 3c d9 02 9a bd 75 8d af bd
       -0.06237451 0.025578797 -0.075200744 -0.08571903
0000d0 aa 2d 85 3d 5a f6 5f bd 49 5a 8e bd e8 af 0d 3c
       0.0650285 -0.0546783 -0.06950814 0.008647896
0000e0 98 f8 42 3d 2b bd 76 bd 1a df b7 3d 80 36 a8 3c
       0.04760036 -0.060239 0.089781 0.0205338
0000f0 58 97 00 3c fe dc 81 3d 7c 41 37 3d 60 f7 59 bc
       0.007848583 0.06340979 0.044740185 -0.013303608
000100 24 80 94 bc 38 d2 af 3d 10 d0 54 3d 54 99 f7 3c
       -0.018127508 0.08585018 0.051956236 0.03022448
000110 df 36 85 bd 10 06 ca bc 2a cf 17 bd e0 a2 32 bc
       -0.065046065 -0.024661094 -0.0370628 -0.01090309
000120 20 0b 93 3b ec 25 79 3d 76 38 88 3d ca 3d 42 bd
       0.00448741 0.06082718 0.06651394 -0.047422208
000130 20 4d 0b 3d 90 dc 62 bd 99 5d b9 bd 00 db 55 bc
       0.0340091 -0.055386126 -0.090510555 -0.013052702
000140 b4 fc 6a 3d 38 07 7a bc b0 89 50 3d 61 ec b6 bd
       0.057369903 -0.01526051 0.05091256 -0.089318044

fc3.weight f4 [10, 84]
000000 4c c2 1c bd 0d d7 ae 3d 23 21 86 3d 7d 6a b1 3d
       -0.038271233 0.085371114 0.06549289 0.08662889
000010 89 99 b7 3d 89 96 9d bd a0 c6 69 3c ea 9a 3a bd
       0.089648314 -0.07694728 0.014268547 -0.045557894
000020 b3 6c a1 3d 26 9b 2f bd 94 0f ee 3c 29 3e 86 bd
       0.07882061 -0.04287257 0.029060163 -0.06554825
000030 5a 1f ab bd 90 65 0b bc e2 76 68 bd 8a d1 af bd
       -0.08355589 -0.008508101 -0.056754 -0.08584888
000040 9d d7 5a bd 49 92 b6 bd 00 2e 40 3c 0c 18 b9 3c
       -0.05342828 -0.089146204 0.011729717 0.022594474
000050 71 c8 64 bd 74 cc ef 3c b8 5a 25 3c 04 be 1c bd
       -0.05585522 0.029272296 0.01009243 -0.03826715
000060 00 8f 06 bb a8 8f 02 bc 66 7a 35 bd 23 83 cb 3d
       -0.0020532012 -0.007968821 -0.04430618 0.09937122
000070 91 bf b2 3d 45 7f 9e 3d ac d5 a4 bd a0 ee 04 3b
       0.08727945 0.077391185 -0.08048567 0.0020283833
000080 03 a7 c6 bd da d0 43 bd ad 6d 93 3d 58 4e c5 bd
       -0.09699824 -0.0478066 0.07198653 -0.096340835
000090 4a 24 ad bd 8f e2 c2 3d 33 34 ca 3d 10 b4 ae 3b
       -0.08454187 0.09515869 0.098732375 0.0053315237
0000a0 c0 57 84 bb 58 94 45 bc f9 ca a6 3d 94 79 6e bd
       -0.004038781 -0.012059294 0.08144183 -0.058221415
0000b0 08 96 a5 bd 0c 10 d8 bc 16 d0 82 bd e3 52 d5 3d
       -0.08085257 -0.02637484 -0.063873455 0.104162
0000c0 00 63 2f 3c bc 4b ba bc a0 6c aa bd 1f af d1 3d
       0.010704756 -0.022741191 -0.083215 0.1023848
0000d0 6a d5 c1 bd 49 87 65 bd 22 9b 60 bd 1e 1c 1a bd
       -0.094645336 -0.05603722 -0.054835446 -0.03762447
0000e0 db d5 d6 3d 8d 3c 9c bd 51 f9 d9 3d 5a 75 c9 bd
       0.104900084 -0.07628737 0.106432565 -0.09836836
0000f0 7e 49 40 3d 60 36 09 3c 53 39 8c 3d 09 d0 c3 3d
       0.046945088 0.00837478 0.06846871 0.09561164
000100 4b d9 9c 3d e4 6e 2b bd c9 ab b5 3d ae fa 04 3d
       0.07658633 -0.0418538 0.08870656 0.03246563
000110 d0 0c 09 bc 4c b5 99 bd a6 fd a2 bd fe 3e 4d 3d
       -0.008364871 -0.07505283 -0.07958536 0.050108902
000120 48 77 10 bc b1 75 91 3d 7c f0 a6 3c 5d 09 57 bd
       -0.008817501 0.07102526 0.020378344 -0.052499164
000130 80 fb 69 3b 22 f7 09 3d f7 d5 9d 3d 29 25 75 bd
       0.0035702884 0.03368295 0.07706826 -0.05984989
000140 d2 cf 45 bd df 72 ae bd 1d eb 8b 3d 4d 05 9c bd
       -0.048293896 -0.08518004 0.06831954 -0.076181985
000150 3c 85 90 bd c2 15 30 3d 4a 96 42 bd a0 80 40 3c
       -0.070566624 0.0429895 -0.047506608 0.011749417
000160 e0 d6 a0 3b 1b 8e 8b 3d 00 8e 12 bd 48 94 84 bc
       0.0049084276 0.06814214 -0.035779953 -0.016183987
000170 df 78 af 3d cd b5 a4 bd e3 fc d9 3d 64 69 b9 3c
       0.08567976 -0.08042488 0.106439374 0.022633262
000180 f0 6c 35 3c d4 4e d3 3c d4 4e ca bc f0 22 08 bd
       0.011073336 0.025794424 -0.024695791 -0.033236444
000190 98 60 c3 bd 5f 5d 9f 3d 88 40 62 3c 7a 98 b3 bd
       -0.09539908 0.07781481 0.013809331 -0.08769317
0001a0 72 1e b3 bd dc 44 c9 3c 28 f5 12 3c 40 57 0b 3c
       -0.08746041 0.024568968 0.008969583 0.008504689
0001b0 7a 4a 30 3d e0 8a f5 3b 1f d3 d9 bd 1a 5b 26 3d
       0.043039776 0.007493362 -0.10635971 0.040614225
0001c0 60 0a 37 3b ee a3 38 3d 7a ad 0b 3d 60 11 f7 bb
       0.0027929768 0.04507821 0.034100987 -0.007539913
0001d0 41 e0 b1 3d 4e 62 b6 bd d7 d7 a5 3d 5e b8 03 3d
       0.08685351 -0.08905469 0.08097809 0.032158248
0001e0 cc 02 ec 3c 98 22 c0 bd 69 22 c5 3d 67 cd 83 bd
       0.028809927 -0.09381598 0.09625704 -0.06435662
0001f0 3e d3 96 bd 40 78 57 3c 9d 96 be 3d 79 ff c8 bd
       -0.0736451 0.013151228 0.09306071 -0.098143525
000200 bc a6 e4 3c 0c 80 34 bd ef c2 bb 3d ec e7 19 bd
       0.027911536 -0.044067428 0.0916804 -0.037574694
000210 f0 5d c6 3b c0 30 c2 3b 68 38 b7 bc ab ff d9 3d
       0.0060536787 0.0059262216 -0.022365764 0.10644468
000220 fb 5a 93 3d ea 21 12 bd 92 99 04 bd 49 80 48 bd
       0.071950875 -0.035676874 -0.03237302 -0.048950467
000230 20 63 40 3b 2a 9d 63 3d 7c ca 8a 3c 60 7b 14 bb
       0.0029355958 0.055569805 0.016942255 -0.0022656545
000240 ce 81 52 3d fd 15 85 3d 08 98 cc bd 4c ce ac bd
       0.051393323 0.064983346 -0.09989935 -0.084377855
000250 34 47 ed 3c 0c 85 bd bd 70 0e 4b bc 10 7e 29 bd
       0.028964616 -0.09253892 -0.012393579 -0.04137999
000260 e9 87 b1 3d 44 c3 bf bd 2e 01 de bd 42 ab d2 bd
       0.08668501 -0.09363416 -0.10840069 -0.10286571
000270 68 62 8e bd 22 50 d8 bd 9c 30 c1 bd 67 c4 db 3d
       -0.06952363 -0.10562159 -0.094331 0.1073082
000280 60 43 b5 3b c3 f5 ac bd 94 ca a8 bd e0 91 54 bc
       0.0055317134 -0.08445313 -0.08241764 -0.012974232
000290 29 03 4e bd 34 c3 f2 bc 34 2a f9 bc 53 b6 d4 3d
       -0.050295983 -0.029634096 -0.030415632 0.10386338
0002a0 4e 97 9c bd 2d 9c 9b 3d c0 cb 86 ba d4 c9 b6 bd
       -0.076460466 0.075981475 -0.0010284111 -0.089252144
0002b0 58 a3 30 3c 3f 2f df bd 3a 25 41 3d 36 49 5b 3d
       0.010781132 -0.10897683 0.047154643 0.053536616
0002c0 9d b4 81 3d f4 97 d3 bd 50 e7 05 bc ea 26 24 3d
       0.063332774 -0.10331717 -0.008172825 0.040076174
0002d0 60 e6 a0 bc f0 03 a3 bd b8 46 7c bc 6a aa 0c 3d
       -0.019641101 -0.079597354 -0.01539772 0.034342207
0002e0 0a aa 84 bd f8 9f ca bc 4c 70 ee bc 58 f5 9d bd
       -0.06477745 -0.024734482 -0.029106282 -0.07712811
0002f0 1f ec c5 3d 98 fb 35 bd c0 c7 b0 bc cf a6 dc 3d
       0.09664177 -0.04442939 -0.021579623 0.10774004
000300 69 13 c6 3d 20 0a 9a 3b 04 8f db bd 62 6a 9d bd
       0.09671671 0.004700914 -0.107206374 -0.076863065
000310 ec 70 35 bd b4 85 fc 3c a5 ec ac 3d 2f 73 af bd
       -0.044297144 0.030825473 0.08443574 -0.085668914
000320 ca bb 28 3d 7b cd c0 3d 12 d4 0a bd 28 cb 7f bc
       0.041194715 0.09414192 -0.033893652 -0.015612401
000330 5b b2 6e bd d5 9a b2 3d b6 dd 18 bd 19 da d2 3d
       -0.05827556 0.08720938 -0.037320815 0.10295505
000340 bc 23 80 bc 30 08 4c bc c0 87 97 bd 06 b3 14 3d
       -0.01564204 -0.012453124 -0.07398939 0.036303543
000350 29 03 a6 3d 31 39 72 bd 4b 75 a9 3d e3 1c 9f 3d
       0.081060715 -0.059136573 0.08274325 0.077691816
000360 c8 f4 9c bc 16 14 90 bd 4c da eb 3c 5f 16 65 bd
       -0.01915969 -0.07035081 0.028790615 -0.055929538
000370 c6 db 47 3d a4 fd ef bc b4 d5 c9 bd cc 80 85 3c
       0.048793577 -0.02929575 -0.09855214 0.016296767
000380 e8 89 d1 bc 8a 7f aa bd 04 3a 8a bc 54 f2 26 bd
       -0.025578454 -0.083251074 -0.016873367 -0.040758446
000390 a9 7c de 3d f2 28 99 bd 24 6b f3 3c ff 4a d3 3d
       0.10863621 -0.07478513 0.029714175 0.10317039
0003a0 dd 34 95 3d 57 56 72 bd 50 90 99 bc 7c 4c 8d 3c
       0.072854735 -0.05916437 -0.018745571 0.017248385
0003b0 68 97 50 bc 1f f6 a4 bd cf f0 dc bd 54 19 9a 3c
       -0.012731411 -0.080547564 -0.10788118 0.018810906
0003c0 16 a0 26 bd ec 1d 9e 3c f0 f6 ab bd 20 1b 32 3b
       -0.040680014 0.019301377 -0.08396709 0.0027176812
0003d0 06 aa b4 bd 73 30 a0 3d ba cd 29 bd 20 09 62 bd
       -0.08821492 0.07821741 -0.04145596 -0.055184484
0003e0 08 b7 51 bd 46 18 6e 3d 69 16 dd 3d 34 1d ae bd
       -0.051199943 0.058128618 0.1079529 -0.08501664
0003f0 f0 47 46 3c e8 65 81 3c 06 72 24 bd a8 6d 17 3c
       0.012102112 0.015795663 -0.040147804 0.009242453

fc3.bias f4 [10]
000000 68 84 5b 3c 71 c2 cd 3d c6 af 2b bd b6 2f cb bd
       0.013398267 0.100468524 -0.041915677 -0.099212095
000010 d2 3a 1a 3d 5c 9c e8 bc 80 fb 13 ba 4f 40 de 3d
       0.03765375 -0.02839487 -0.00056450814 0.1085211
000020 f0 9a a9 bb 30 77 7a bc
       -0.0051759407 -0.015287206
